isaacgymenvs/demo/online_agent.pth (torch, 587022 bytes, 36 tensors)

value_mean_std.running_mean f8 [1]
00000000: 05b9 7208 6548 1040
4.07069791031086

value_mean_std.running_var f8 [1]
00000000: e070 8b0e ed69 4040
32.827546899877916

value_mean_std.count f8 []
00000000: 0000 0008 0084 8441
43024385.0

running_mean_std.running_mean f8 [24]
00000000: 89ae 5d4e 7723 6e3f 6722 7253 6218 87bf
00000010: 9caa bd9d c257 d4bf b98a 6e66 c231 e43f
00000020: 00e4 17ba de4a a2bf dcc0 efdb fcae 943f
00000030: e634 244b 9e8a 983f 9e90 a0e2 5883 acbf
00000040: 2ea7 07f6 2f5e f13f 180c 2871 e6dc ea3f
00000050: 64b9 e9d9 4703 813f d204 9d7f a6b8 753f
00000060: cdc6 46e6 0926 83bf b086 1ecc 136a 6d3f
00000070: 4661 002d 838a 63bf c2b7 91fe a7f5 f03f
00000080: 78c2 3963 be90 aebf 7cc9 0417 7b64 b33f
00000090: 86f1 dea3 b622 a4bf 1724 9196 d31f 973f
000000a0: 235b c6d1 5bdd 943f 92f0 f4af b04a abbf
000000b0: a4c2 fa10 78c6 373f 35cb ed49 d86a 3c3f
0.003679020900497158 -0.011276977702679504 -0.3178564587057424 0.6310741425152947 -0.03572746297499663 0.02019877521883094 0.023966286979931882 -0.05568959967084307
1.085494957975651 0.8394653520666706 0.008307038629223391 0.005303049454427016 -0.009349896755199616 0.0035906206766903245 -0.0023853837992754727 1.0599746650800488
-0.05969805680513657 0.07575196563701597 -0.03932734251381746 0.02258234602439665 0.02037566631187383 -0.053304215888119746 0.00036278182322306064 0.0004336145447531471

running_mean_std.running_var f8 [24]
00000000: cb66 f0a4 9e15 a13f 2721 add8 740d a03f
00000010: 6879 dada fa1d c93f ce62 a3b1 51b9 ce3f
00000020: 5b4c dfe2 b025 a83f 9baf e183 4596 a63f
00000030: a8e6 bfdd b340 a43f 3dcc 764c d0cc b23f
00000040: a53d ecca c602 6f3f 1a79 ef24 b80c d03f
00000050: c4af 208a 948f 873f 7f9d 73d2 f33b 913f
00000060: a2d0 c8b4 53a4 903f cc4e 8fb4 7d2d 963f
00000070: 78a5 7145 2107 963f 51a9 b125 ad2b fc3e
00000080: 1aca 79f0 9f81 af3f bb9f ddef 1326 b93f
00000090: 8ec3 09b7 2a63 aa3f 7455 d699 4680 a93f
000000a0: e4bf aaac f435 a43f 9bad 925a 2776 b13f
000000b0: ae00 3795 0873 793e 07e3 9558 4d2a b33e
0.03336807025352825 0.03135266442274292 0.19622741399957566 0.2400304906248238 0.04716255921780351 0.0441152308929695 0.03955614168075999 0.07343770853803817
0.0037855036420137594 0.25077632529236527 0.01150432631046517 0.01683026287073863 0.016251857670980592 0.02165790953206574 0.021511573661347566 2.686558796619862e-05
0.061535833458851566 0.09823727232071537 0.05153783306457803 0.049806791571579107 0.03947414977790212 0.06820913277868217 9.480621559251426e-08 1.1423374835768222e-06

running_mean_std.count f8 []
00000000: 0000 0010 0084 7441
21512193.0

a2c_network.sigma f4 [2]
00000000: b930 2ec0 d84a 37c0
-2.7217238 -2.863943

a2c_network.actor_mlp.0.weight f4 [256, 24]
00000000: 180c 65be def3 e8bd 4770 d3bd b624 0ebd
00000010: 999e 19bb 2bbe 07bd 93e6 0d3e 7063 5dbe
00000020: 23da 013f 6ef6 b7bc 928b cc3d c53c 533e
00000030: 4c60 ddbb a26b 873e 8e0f e03d f11d 433c
00000040: 4965 cf3d 25c1 893e 0311 a6bc ee51 863e
00000050: c893 a63c 09df 58be 0850 593f 89fa 0b3f
00000060: 45c7 273e 831f f8bd e6e7 05be df5a f9bd
00000070: 8f56 f33d 1a83 ef3d aaff b1bc 6bb0 d13c
00000080: a6c6 4cbd fab7 003e f5ba de3d 704e c5bd
00000090: 7822 9dbd 3bf1 b6bd c1e2 9c3d 04b3 da3d
000000a0: 6d6a 183f 9bb4 733c ec3a b83e 3a6f 31be
000000b0: df2c 6ebe bb9a 3bbe 9154 c0bf 0916 efbf
000000c0: e906 a93e 87cf aabd f5d4 13be c828 12be
000000d0: 7df0 69be c67b 4dbe d4e6 823e e17b 693e
000000e0: ee76 94be 86bd b1bd 3502 173e 3a0c b9bc
000000f0: 1005 ad3e 96cd 39bd 3dfd 06bc dac3 2cbe
00000100: a999 eabe e5c7 01bf ab5a f0bc e072 15be
00000110: a272 703e 6976 a73e c1ba 02bf 20b8 27be
00000120: d706 a03e 129e dcbd 7e9a 6cbd b84e a9be
00000130: 2a7c 79be 7aa3 393e 3457 0bbe 0c10 00be
00000140: 1878 6fbc 1f94 dbbe 3bea ccbe f766 5fbe
00000150: 1c76 4ebe d8d2 38be 421c b03d 6fb0 a73d
00000160: 0696 653d 1853 39bd 8c74 56be b255 083e
00000170: b49c b8bb bc96 8cbd 617f 723f d416 b23e
00000180: 7938 723d e608 21be 4fec 0b3c 93fa 2ebe
00000190: ffcc 83be 0928 16be 8587 4ebb 447c 9ebd
000001a0: 41b5 003f f311 7dbe 383d 9d3e 62d3 b63c
000001b0: 40be 54be 4b06 f33d 6e3f d7bd ba04 ebbd
000001c0: af17 dabe 0149 c1be f101 3bbd 9a46 4abd
000001d0: 7ffc 173e eee1 93bd f093 7bbe 02a4 99be
000001e0: 3705 88bd 914a 343c 0150 ad3d 2e95 283e
000001f0: 01de b53d 7379 a6be 078a ddbc 0717 21bd
00000200: 7f02 39bd 78c0 dcbd 95ba 173d e2a3 4abd
00000210: abd5 283d 3ebc 173d efa8 333e fe28 c7be
00000220: c488 163e d52a 3dbe 9ec7 78bd c249 d1be
00000230: 8a9c d63a 56d0 98bd 5f79 6fbf 5fa5 22bf
00000240: 677e 1c3d b5db a5bc bef3 39bd bae8 8c3d
00000250: b8dc 703e 3b70 d3bc 8126 63be d599 9abb
00000260: e999 0cbf 16ea de3d 134b e23d c54a 43bd
00000270: 5913 823d 1811 c03d 2a88 ab3d 2080 61bd
00000280: 77aa 223f 6b05 123e 24bb 4a3e ec99 8abd
00000290: c7d4 20be 832e 223d a431 c93f 26c8 5b3f
000002a0: 795d 54bc 2226 d03d 2121 1d3c ad7e cfbd
000002b0: 95ca a4bc 6a5c 493e bece 26bd 5416 51bd
000002c0: 6537 96be bde3 58bd 55b6 473e 570d 603e
000002d0: b9a9 0c3d 1024 99bd 418a 44be a621 edbd
000002e0: f718 d23c 42ca 023f a3d8 b73d d6b2 bd3e
000002f0: acf0 87be 646b 09be b4b6 c3be c97c 86be
00000300: e17a b23d e0a5 bdbc 3751 393d c013 6fbd
00000310: 75ee d6bd 3f5d 793e 470a dd3d 40d1 86be
00000320: 77e4 85be fe65 9c3e 2f23 213e c002 56bd
00000330: a289 73be 882c fbbd fdbd 06be 2e0e ce3e
00000340: 64a2 3abd e1cd 3f3f 1e70 423d 55f9 2c3e
00000350: 139c da3d 5c6f c4be 9a65 c33e 4ecf 7c3e
00000360: 4bd4 6c3e 48f1 d8bd 7e2d 5a3d b7a3 a0bb
00000370: aa6c 863d b676 9abe 4a4a 0fbe d205 133e
00000380: 8dad 6fbe e6a0 643e 6058 4bba c353 00be
00000390: e90a ba3d a4f3 aebd adce 92bd ecac 3cbe
000003a0: 0e38 673e 13bb e2be bc18 513e 591c 87bd
000003b0: f1e7 1d3e 719e e6bd cb4b 063f a41c b93e
000003c0: 4baf 843d ba18 773e 3d3c adba d809 093c
000003d0: 3c42 1abe 18d6 b5be b2e0 c03b 38e3 e03c
000003e0: 1f73 f23e e248 683d 01d8 0f3e 5255 04bd
000003f0: 0898 5fbe 5e05 843d 9c35 123e e3fe 7fbe
-0.22367895 -0.11374639 -0.103241496 -0.03470298 -0.0023440479 -0.033140343 0.13857488 -0.21619964
0.50723475 -0.022456374 0.099875584 0.2062865 -0.0067558642 0.26449305 0.10940467 0.011908994
0.101267405 0.2690517 -0.020271784 0.26234382 0.02033414 -0.21178831 0.84887743 0.5467916
0.16384609 -0.121153854 -0.13076743 -0.121755354 0.11881744 0.116949275 -0.021728355 0.025596818
-0.049994133 0.12570181 0.10875503 -0.096341014 -0.0767259 -0.0893273 0.076604374 0.10678676
0.5953739 0.014874603 0.35982454 -0.17327586 -0.23259304 -0.18320744 -1.5025808 -1.86786
0.33013085 -0.08340364 -0.14436705 -0.1427337 -0.22845645 -0.20066747 0.25566733 0.22801162
-0.28996986 -0.08678727 0.14746936 -0.022588838 0.33792925 -0.045362078 -0.008239088 -0.16871586
-0.45820358 -0.5069564 -0.029340109 -0.14594603 0.23481229 0.32707527 -0.51066214 -0.16378832
0.31255218 -0.10772337 -0.057764523 -0.3306787 -0.24363771 0.18128768 -0.13607484 -0.12506121
-0.014616035 -0.42886445 -0.40022454 -0.21816622 -0.20162243 -0.1804918 0.0859914 0.08187949
0.056051277 -0.04524526 -0.20942897 0.1331394 -0.005633915 -0.06864688 0.94725615 0.3478304
0.059135888 -0.1572605 0.008540227 -0.17087774 -0.25742337 -0.1466371 -0.0031513881 -0.077385455
0.5027657 -0.24713878 0.3071077 0.022317592 -0.207757 0.11866435 -0.10510145 -0.11475511
-0.42596194 -0.3775101 -0.04565615 -0.049383737 0.14842413 -0.07220827 -0.24568152 -0.3000794
-0.0664162 0.011004106 0.08462525 0.16463158 0.088802345 -0.32514533 -0.027043356 -0.0393286
-0.045168396 -0.10778898 0.037043173 -0.049472697 0.041219395 0.037044756 0.17544912 -0.38898462
0.1470061 -0.1847337 -0.060737245 -0.40876585 0.0016373557 -0.07461612 -0.9354457 -0.63533586
0.038206484 -0.020246366 -0.045398466 0.068803266 0.23521698 -0.025810352 -0.22182657 -0.0047180452
-0.5492235 0.10884492 0.110494755 -0.047678728 0.063513465 0.093782604 0.083755806 -0.05505383
0.6354136 0.1425988 0.19797951 -0.067676395 -0.15706168 0.03959514 1.5718274 0.8585228
-0.012961739 0.10163523 0.009590418 -0.10131583 -0.02011613 0.1966416 -0.04072451 -0.051046684
-0.29339138 -0.052951563 0.19503148 0.21880089 0.034341548 -0.074775815 -0.19193365 -0.115786836
0.02564667 0.5108987 0.08976867 0.37050503 -0.26550806 -0.13419873 -0.3822533 -0.2626708
0.087148435 -0.023150384 0.045243468 -0.058368444 -0.10494701 0.24351977 0.10792976 -0.2633152
-0.26150867 0.30546564 0.15736078 -0.052248716 -0.23782972 -0.12264353 -0.13158412 0.40245193
-0.045565024 0.7492352 0.047470205 0.16891988 0.106743 -0.3836621 0.38163453 0.24688455
0.23127858 -0.10592896 0.05326604 -0.004902329 0.06563695 -0.30168694 -0.13993183 0.14357689
-0.23406048 0.22327003 -0.00077570044 -0.12531953 0.09084112 -0.085425645 -0.071683265 -0.1842534
0.22579977 -0.4428335 0.20419592 -0.06597204 0.1542051 -0.11260689 0.524594 0.36154664
0.06478747 0.24130526 -0.0013216805 0.008364163 -0.15064329 -0.35514903 0.005886161 0.027452096
0.47353455 0.05671013 0.14047243 -0.03230793 -0.21835339 0.06446336 0.14278263 -0.24999575

a2c_network.actor_mlp.0.bias f4 [256]
00000000: 7ee2 993d 5fe2 ff3d 557a 92bd a3c5 b83c
00000010: 0ed4 a4ba 2c14 99be a140 193d d8a5 493d
00000020: 16ca 4d3e 0ae3 e4bc a8ee f5ba 8d58 af3e
00000030: a113 09bc 3285 c73e ad32 273c 15e7 cf3c
00000040: 9ef5 1dbe b94c f5bd 9f9a d23d f823 aa3e
00000050: 3f4d 4e3d bde8 0f3d acc5 dbbd 636b fa3d
00000060: 821d 0f3c 7af8 0a3e 2b8b afbe d5bb 723e
00000070: a7ea 9bbe aba8 4d3e f425 1abc a3e5 99bd
00000080: c90a 24be 02a8 0ebd 5e25 cf3d f7d7 36be
00000090: e785 493e 4f45 dabc 5c16 27bc 8899 5c3e
000000a0: 5928 49be 7e9d 763d 6a0a c8bc af54 303d
000000b0: e66a 00be 06c0 ba3e 17ba 83bd da77 1f3e
000000c0: 1034 46be edc1 f5bd 6519 11be 42e1 75bd
000000d0: e8d5 27bd 3bb7 043e 3dd9 7dbc b2fa 0a3d
000000e0: 4de3 0fbe ab6b 3b3e 6690 65bb cd82 873d
000000f0: 4475 8a3e 636f 8b3d b5d2 abbe 6d8f 30be
00000100: 7b3f 4abe 9f90 42be 2124 42be bcce 863e
00000110: 94de 153e b9ee 283d f5cf 6dbe 7939 e2bd
00000120: 0e99 66be 5c27 ddbd 1e01 9f3d 6e45 d3bd
00000130: 7a46 033e 5fee 50be 7d20 bbbd fcd4 5abe
00000140: 7e04 bdbd b8f7 e1bd 04bc 1fbe 8073 1a3e
00000150: 02ff 64be 2809 c13e 8c10 a33e 2350 9ebe
00000160: c17b 1cbe 2ed2 a33c bc2d bfbd 4a28 a83e
00000170: e6e5 4d3d 1c57 53be b6e0 c63d 51ff 1a3d
00000180: 004c e83e d799 83be 2518 e13d 0975 f53e
00000190: 90cd 94bd f3ed 88bd 4c38 04bb 5f6b 53be
000001a0: f55d 1a3e 6214 043e a469 073c ed01 9cbe
000001b0: 8747 58bc dcd2 98bc cb06 a1be f24f 2dbe
000001c0: ec03 cdbe 380b 91be a532 2abe 81af 2fbd
000001d0: 4b1a 493e 6167 413e 3799 303e 232f ebbd
000001e0: 5ecf 8abd 533d 40be 04af 85be 349e 8cbe
000001f0: b816 eb3d 355f 35bd 5b70 05be 81c7 24be
00000200: c025 6cbe a7d3 66be a061 3d3d 3757 7abc
00000210: d704 aabe af03 e53c bdd2 9fbe 7241 3fbd
00000220: 0032 573e 7801 52be dd7c 163e 9801 753e
00000230: bd1d abbc 508e 30be bb5a 30be 17d5 80be
00000240: cd3d 20bd c601 d73d f701 123d 33da b03d
00000250: ed18 a5bd b174 94ba 4732 b8bc b844 f7bd
00000260: f19f 29be 043a 383e 8f0b 94ba 8e56 58be
00000270: 2d50 53be 20ab 9bbe 4090 953e 5b31 48be
00000280: 8e44 bb3e f115 253c 6629 8ebe dc4d 203e
00000290: 5988 8cbd b494 edbd 46fe a03a 6203 9b3e
000002a0: f28d 8f3d 9a6f 72bc 0c74 2e3d 6b26 1e3e
000002b0: 9488 393d c85d 9cbc 24a3 afbe e706 423e
000002c0: 6ba5 363e aa03 90be 0ad3 92be d218 843e
000002d0: d622 953e 13f8 79be 46ea 383e 04f7 a5be
000002e0: c666 64be 0730 67be db84 b7bc 9e5a e7bd
000002f0: f049 743e 0405 8bbd 19ab f93c b99b af3e
00000300: f52f 82be c878 d2be d7cd dfbd 55fa 95bd
00000310: 75ef 923d 9c78 1fbe 034d 52bd 7931 3dbe
00000320: 8284 7bbe 9cf2 b8be ea3a abbe 7a7d 8abd
00000330: 5fc4 473d ce14 b63e d82c a8be f4cb 3dbe
00000340: 1c8b 82bb 3e7c 5cbe a13c 12be f1f0 bcbe
00000350: 8424 253e a1a3 9fbe 82c7 ba3b d79f 6f3e
00000360: 49b2 31be 2156 bf3c 127a 97bd 361c 86bd
00000370: 81d2 ccbe 0933 aabe da7f 1cbd 4711 fd3d
00000380: 058d df3d 6ca9 dabc c83b 92be e745 0ebe
00000390: aee7 22be 2d3b fdbd 1c37 d7bd 5ab1 93be
000003a0: 9645 b03d 7066 d33c 7f34 98bd fb2b 0f3e
000003b0: 239a f33d ad84 46bd ee51 803b 6e0d 443d
000003c0: ccb7 833d ec6e 203e a5e8 12be 30a7 343e
000003d0: b50d a6bd 100f e23d 786d 683e 247f 04be
000003e0: 7639 59be 6bd0 f13e 7a05 a83e 6e8d 1d3e
000003f0: 666a a1be f926 3dbe a727 083e c868 493e
0.07513903 0.12494349 -0.07152239 0.022555178 -0.0012575404 -0.29898202 0.03741515 0.049230427
0.20096621 -0.027940292 -0.0018763142 0.34247246 -0.008366496 0.38968807 0.010204953 0.025378743
-0.15425727 -0.11977524 0.10283398 0.33230567 0.050366636 0.035134066 -0.10731062 0.12227514
0.008735063 0.13571349 -0.34285864 0.23704465 -0.30452463 0.20083873 -0.009408463 -0.07514503
-0.16019739 -0.034828193 0.10114549 -0.17855822 0.19679986 -0.026644377 -0.010198202 0.21542943
-0.19644298 0.06020879 -0.024419028 0.04304951 -0.12540779 0.36474627 -0.06431978 0.15573063
-0.19355798 -0.11999879 -0.14169843 -0.060029276 -0.04097548 0.12960522 -0.015493688 0.033930488
-0.14051552 0.18302791 -0.0035028695 0.06616745 0.27042592 0.06808355 -0.33559194 -0.17242213
-0.19750778 -0.19000481 -0.18959095 0.263296 0.14635688 0.04124329 -0.2322386 -0.11046118
-0.22519323 -0.10798523 0.07763885 -0.10315977 0.12819853 -0.20403431 -0.09137056 -0.2137031
-0.092293724 -0.11033577 -0.15599066 0.15083122 -0.22362903 0.37702298 0.31848562 -0.30920514
-0.15281583 0.019997682 -0.09334895 0.32843238 0.050268076 -0.20638698 0.09710829 0.037841145
0.45370483 -0.25703308 0.10990933 0.47940853 -0.072657704 -0.0668601 -0.0020175157 -0.20646428
0.15074904 0.128984 0.008264933 -0.3047022 -0.013200647 -0.018655233 -0.31450495 -0.16925028
-0.40042055 -0.28328872 -0.16620882 -0.042891983 0.19638936 0.18887092 0.17245947 -0.114836
-0.067778334 -0.18773393 -0.2611009 -0.2746445 0.11478943 -0.04428025 -0.13031141 -0.1609173
-0.23061275 -0.22541676 0.04623568 -0.015279583 -0.33206818 0.027955858 -0.31215468 -0.046693273
0.21015167 -0.20508373 0.14696069 0.23926389 -0.020888204 -0.17241788 -0.17222111 -0.25162575
-0.039121438 0.10498385 0.035646405 0.08635368 -0.08061395 -0.0011326281 -0.022484912 -0.12073654
-0.16564919 0.17990881 -0.0011294949 -0.21126768 -0.20636053 -0.30403996 0.29211617 -0.19550078
0.3657574 0.010076032 -0.2776596 0.15654701 -0.06861944 -0.116006285 0.0012282811 0.30276018
0.07009496 -0.014797116 0.04259114 0.15444343 0.045296267 -0.019087687 -0.34304154 0.18947946
0.1783654 -0.28127795 -0.28676635 0.25800186 0.2912814 -0.24411039 0.18058118 -0.3241502
-0.2230483 -0.22576915 -0.022402218 -0.11296581 0.2385633 -0.06788066 0.030477094 0.34298494
-0.25427213 -0.41107774 -0.10927933 -0.07323138 0.07174579 -0.15573353 -0.051342975 -0.18475904
-0.24562266 -0.36122596 -0.33443385 -0.06762214 0.04877126 0.35562748 -0.32846713 -0.18534833
-0.0039838683 -0.2153177 -0.1428094 -0.36902574 0.16127211 -0.31179526 0.0057000527 0.23400818
-0.17353167 0.0233565 -0.0739633 -0.065483496 -0.40004352 -0.33242062 -0.038207866 0.12356811
0.10915569 -0.026692115 -0.28561234 -0.13893853 -0.15908691 -0.123648025 -0.10508558 -0.28846246
0.086070225 0.025805682 -0.07431888 0.13981621 0.118946336 -0.048466373 0.003916017 0.04786437
0.06431541 0.15667313 -0.1434656 0.17641902 -0.08108083 0.11038029 0.22698009 -0.12939125
-0.21213326 0.47229323 0.32816678 0.15385982 -0.31526488 -0.18471898 0.13296376 0.19668877

a2c_network.actor_mlp.2.weight f4 [128, 256]
00000000: 01e8 4dbb 92d0 20be d1a2 6b3d 6976 aa3d
00000010: 809c f8bd 9b63 8e3b 0a9d 26be baaf 153e
00000020: a171 c03d 4a49 1dbd 58ce 65be fbb3 093e
00000030: ec16 4e3d cec3 dabd 624c c3bd 5b6b afbe
00000040: d8cb c2bd 0178 883d 4cf1 3c3e 073d c6bc
00000050: 4185 e63d a5de 1b3d 9b37 b4bd b4bb 33be
00000060: c6cc b4be 0c05 c2bc bd99 33be d5de a1bb
00000070: e128 93bd 8d0a 543c 8c62 cdbd 3a0f afbc
00000080: b7d4 153e 1d3d 6a3d 8ae8 11ba 347d 5b3d
00000090: 4de5 763e af36 623d 5576 b0bd e4f4 503d
000000a0: e9dc 10be 21c1 f7bd 7084 c63c 617d cd3d
000000b0: 15b8 a5bd fe46 c13d dc4e 193c 1fe1 cbbd
000000c0: b8d0 a3bc 2a05 8dbd 8231 cf3d b359 a9bc
000000d0: 1bc7 d2bd 49d7 85bd 6cf2 8cbd 26a3 d4bd
000000e0: c354 fc3d 1be1 653e 0e28 0d3e c47c 0cbe
000000f0: b261 183e f39f c0bc 1e62 1dbd 8409 31be
00000100: c542 ff3c ae03 d33d 81f9 5bbd 36e9 67be
00000110: b941 963d a1a7 903d 89c8 2a3e ad1a 46bd
00000120: 1c74 9ebd c5a1 e8bb 603a c0bc 599c 933d
00000130: 8326 443e bc5f 803d 0ee6 66bd 825d 0dbe
00000140: daf2 a2be 2a04 063e dd51 3a3d d5f8 f03d
00000150: 75e8 4d3d 0903 dc3d 3ee6 203e 6e23 863c
00000160: 3c45 96bc 9865 c3bd 3ab7 10bb 5cd1 1e3e
00000170: 72a3 863d eafd 7f3c 64a1 afbe 654f d13d
00000180: 4a13 bcbc 912b e93d 0138 3c3c b712 923b
00000190: 1959 22bd 11d1 373d ee60 f5bd 2a5e 2bbc
000001a0: f96f 133e dd1c bb3c 38cf 503e 2558 173d
000001b0: 9a4a ab3d 6089 b53d 4fc7 d4bc df7d 473e
000001c0: 0c83 b53b a955 ea3c 108b 553d f148 3b3d
000001d0: 8dad 953e 6ad8 c6bd 2d92 58bd a312 cfbd
000001e0: 6a0f 73be 076f bebb b28e d5bc 94fc 363d
000001f0: 89fa 3f3c 9de3 bfbd f7a3 0f3e 1dbc 5ebd
00000200: 411b dc3d ed59 f7bd 80a9 833c 151d bd3c
00000210: bf67 1bbe 6d71 f3bc 1986 37be c766 853d
00000220: 9344 783d 6f34 52be b079 303e 66c7 023e
00000230: 0395 103e 679d 0e3d 8e2a f73c 9fd7 3b3d
00000240: 7984 c03d 3b0f c43c 567a 5abe c88d 103b
00000250: 8ef2 eb3b 8c27 033e 85f4 c13d 6625 2c3e
00000260: 2417 d9bc a94b cb3d 9f71 bbbc a251 5f3c
00000270: d163 623a ba84 dfbd 518f 46bd a136 943d
00000280: ce78 403d 1e3e 6b3d 2b76 c93d ed92 223d
00000290: 638d 043e 38c1 d8bd c9c9 43bd ea7d cb3c
000002a0: 3b21 383e 2c48 aabd 5f92 44bc 6839 e13d
000002b0: 6109 27be 1f23 d6bd 2dc5 73bd 883d 073e
000002c0: 341b 6c3e 5f57 e9bd 8907 eabc 5c3a 1d3d
000002d0: ef26 6abc 448c b43b 9a61 073e 1006 e83d
000002e0: ef2b 263d c858 96bd 32f7 993d 9a82 d23d
000002f0: f91c afbd 94b6 1b3e 8acd 893c 60a3 623e
00000300: 2cef 24be 3b15 84bd d5f7 03bc 7778 da3d
00000310: 9c22 d2bc a82e 3d3e 0151 423c da72 bfbd
00000320: e2eb 8cbe d650 87bd 3f7e 8ebd 2e22 e4bc
00000330: 66e1 e8bc c78f 2e3e a365 6ebd 5a44 f23d
00000340: bf35 b3bd ac01 5f3d bbfe 85bc fbdf ae3c
00000350: 4dd4 a43e 4063 8d3d 807d ddbd 3132 383d
00000360: 7f56 ea3d 4441 e939 bbc9 85be df80 5a3e
00000370: 78ce 27be 1660 9cbd 553e df3c bf67 6fbe
00000380: 6e52 653d 3982 433c 8df1 0abe 32bf 9d3c
00000390: ce2a 2b3e 37e7 16bd 2c47 85bd 6761 48bd
000003a0: ee07 fa3d 5459 ab3d bc00 b13d 5b78 dcbc
000003b0: af36 45bc 8235 0d3e 7e5c e9bd 3b5f be3d
000003c0: 8169 77bd b51d 893d 4fa8 22be 19fc 673e
000003d0: e544 1f3e c1c0 17be bf2f 453e 6044 4c3d
000003e0: 1503 1bbd 7433 06bd d6a9 e23b 6d84 cb3c
000003f0: 6eaf 753d caeb f3bd e32b a63d f907 283d
-0.0031418803 -0.15704563 0.05752832 0.08323366 -0.12139225 0.00434537 -0.16270843 0.14617816
0.09396673 -0.038399972 -0.22441995 0.13447563 0.05031483 -0.10681878 -0.09536053 -0.34261593
-0.09511536 0.06663514 0.18451422 -0.024199022 0.11255885 0.038054127 -0.087996684 -0.17552072
-0.3531248 -0.023684047 -0.17539115 -0.0049398937 -0.071855314 0.012941969 -0.10028562 -0.021369565
0.14631926 0.05718719 -0.0005565962 0.0535862 0.24110909 0.05522793 -0.0861632 0.051014796
-0.1414677 -0.12097383 0.024233073 0.1003368 -0.080917515 0.09437369 0.00935718 -0.09955048
-0.019996986 -0.068857506 0.10116865 -0.020672655 -0.102918826 -0.06535203 -0.06882176 -0.103826806
0.123208545 0.22449152 0.13784811 -0.1371947 0.14881018 -0.02351377 -0.03842365 -0.17288786
0.031159768 0.10303436 -0.053704742 -0.22647557 0.07336754 0.07063223 0.1667806 -0.048365284
-0.0773699 -0.0070993626 -0.023465335 0.07207555 0.19155316 0.0626826 -0.05637174 -0.13805202
-0.31825906 0.13087526 0.045488227 0.11766211 0.050270516 0.107427664 0.1571283 0.016374316
-0.01834356 -0.09540862 -0.0022081868 0.15509552 0.065741435 0.015624503 -0.3430282 0.102202214
-0.022958416 0.11385263 0.011487962 0.0044577974 -0.03963575 0.044877116 -0.119813785 -0.010459462
0.14398183 0.022840912 0.20391548 0.036949296 0.083638385 0.08864093 -0.025973944 0.1948161
0.0055393036 0.0286053 0.052134573 0.04572386 0.2923397 -0.097092465 -0.05287378 -0.101109765
-0.23736349 -0.0058115753 -0.026069019 0.04467447 0.011717447 -0.09369586 0.14027391 -0.054378618
0.10747386 -0.12077699 0.016072035 0.023085156 -0.15176295 -0.029717172 -0.17922248 0.06513744
0.060612272 -0.20527814 0.1723392 0.12771377 0.14119343 0.03481808 0.030171659 0.04585993
0.09400267 0.023933044 -0.2133573 0.0022057164 0.0072005456 0.12808055 0.094704665 0.16811141
-0.026500292 0.099265404 -0.022881327 0.013630303 0.00086360896 -0.109139875 -0.04847652 0.07236982
0.04699021 0.057432286 0.09836992 0.0396909 0.1294456 -0.105837286 -0.04779986 0.024840314
0.17981426 -0.08314547 -0.011997788 0.109972775 -0.16312172 -0.104559176 -0.059514213 0.13207066
0.23057252 -0.11393618 -0.028568046 0.038385734 -0.014291509 0.005509885 0.13220826 0.11329281
0.040569242 -0.073411524 0.07517852 0.102788165 -0.08550448 0.15206367 0.016821641 0.22132635
-0.16106862 -0.06449362 -0.008054693 0.10667508 -0.025651269 0.18474829 0.011860133 -0.09348078
-0.27523714 -0.06607215 -0.06957673 -0.02784833 -0.02842779 0.17047034 -0.058202397 0.11829443
-0.08750486 0.054444954 -0.016356817 0.021347037 0.32193223 0.06903696 -0.10814953 0.04496974
0.11442279 0.0004448985 -0.2613047 0.21338223 -0.16387355 -0.076355144 0.027251402 -0.2337942
0.055986814 0.011932903 -0.13568707 0.019256208 0.16715547 -0.036841597 -0.065077156 -0.048921015
0.12208544 0.08366647 0.08642718 -0.026912859 -0.012036963 0.13789943 -0.113945946 0.092955075
-0.06040335 0.06695119 -0.15884517 0.22654761 0.15553625 -0.14819624 0.19256495 0.049869895
-0.037844736 -0.032763913 0.0069172187 0.024843419 0.059981756 -0.119102076 0.081138395 0.04102323

a2c_network.actor_mlp.2.bias f4 [128]
00000000: a0ef 25be b37d 8b3d dd13 38be 8b50 bebe
00000010: b002 8ebd e47f de3c 952e 8fbe 11ea 72be
00000020: 1fd6 983d 6a12 053e 9237 cbbd 52a2 aabc
00000030: c823 8ebd c805 c83d 51fe 9a3d 1871 22be
00000040: 6917 80be 6ce9 943d f6fe 463e 18a0 903c
00000050: 3408 20bd 0cd0 a1be ccb5 59be 6f58 98be
00000060: 93c6 18bd 3547 5ebe 4d06 073e e96c 1e3d
00000070: 3f48 0cbd ec65 aabb 81a8 583c facb 01be
00000080: a6e3 b23d 204f bdbd c891 223d 4c3e 573d
00000090: 328d 09be d72c 4b3e 1dac a2bc 404d 53be
000000a0: 5901 24bc 1512 59be f138 93bd 9768 823d
000000b0: 8269 4cbe 6327 60be 1bb5 993e 82ae 12be
000000c0: bc2c 01bf 982f 063e ca91 c43c e651 0dbd
000000d0: e5a6 4ebe 74e8 8fbd f1a2 b9bd 6002 82bd
000000e0: b56b f3bd 80ee 6bbe 363d c0bd b159 f6bd
000000f0: fae8 24bd 8bd1 d9bd f58c 1c3d 4362 823e
00000100: 87d5 3e3e 36d3 e1bd 1bbf 463d adab 81bd
00000110: 60eb 323d f9dd 3cbc 4218 30be 82f3 87be
00000120: 7faf b2bd 15a4 09be d4ad 99be ca49 a2bd
00000130: 476d 9c3b 502a 4abe fe3f 2f3a a37b aabe
00000140: d7f4 a03d 00f2 2fbd 57bc 893e 5d9c 20b9
00000150: 8684 1c3c e412 34be 0140 323e 1ade 583e
00000160: 7f79 d0bb ea71 39be 8795 363d df49 54be
00000170: bc92 c83d c9c4 abbe daf8 463b bef8 d13d
00000180: 57df acbe 8ab9 22be f2a8 29bc 3d55 cd3e
00000190: a0a7 35be b308 043e 86a3 9cbe 7d46 8abb
000001a0: 8794 cbbc 5d82 40be 06f5 25bd 119e 82bd
000001b0: d6d5 023d 5fc7 8bbe 4df0 35be 6c1a 65bd
000001c0: 085b c3bd d20f e2bc fe71 acbd 43d5 e53d
000001d0: f214 ebbd 0ae6 efbd 1485 26be c7e3 14bd
000001e0: 6be4 02be a75a ef3d 04fb d83d 808b 64bc
000001f0: 53a3 54be 2012 2dbe 8f26 cc3d 0480 8cbe
-0.16204691 0.068110846 -0.17976327 -0.37170824 -0.06934106 0.027160592 -0.27965227 -0.23722102
0.07462715 0.12995306 -0.099227086 -0.020829353 -0.069404185 0.09766728 0.07568038 -0.15863454
-0.2501786 0.07271084 0.19433197 0.017654464 -0.039070323 -0.3160404 -0.21260756 -0.2975497
-0.03729875 -0.21706851 0.13185997 0.038678084 -0.034248587 -0.0052001383 0.013223768 -0.12675467
0.08734827 -0.092436075 0.03968981 0.052549645 -0.13432768 0.19841324 -0.01985746 -0.20634937
-0.010010087 -0.21198304 -0.07188595 0.06367605 -0.19962123 -0.21890025 0.30020985 -0.14324382
-0.50458884 0.13104093 0.023995299 -0.034501933 -0.20180853 -0.07026759 -0.09064282 -0.06348109
-0.11885778 -0.230402 -0.09386675 -0.12028826 -0.040261246 -0.1063567 0.038220365 0.25465593
0.18636142 -0.110266134 0.048522096 -0.06331573 0.043681502 -0.011527532 -0.17196754 -0.2655297
-0.087248795 -0.13441499 -0.30015433 -0.079242304 0.004773769 -0.19742703 0.0006685256 -0.33297452
0.078591995 -0.0429554 0.26901504 -0.00015317039 0.00955308 -0.17585331 0.17407228 0.21178475
-0.0063621397 -0.18109861 0.044576194 -0.20731305 0.09793612 -0.33548573 0.003036073 0.10252522
-0.33764145 -0.1589109 -0.010355221 0.40104094 -0.17739725 0.12893943 -0.30593508 -0.0042198286
-0.024851097 -0.1879973 -0.040516876 -0.06377805 0.03194221 -0.27300546 -0.17767449 -0.0559334
-0.09538847 -0.027595434 -0.0842018 0.11222317 -0.114786044 -0.11713798 -0.16261703 -0.036350038
-0.12782447 0.116872124 0.105947524 -0.013949275 -0.20765428 -0.16901445 0.09968292 -0.27441418

a2c_network.actor_mlp.4.weight f4 [64, 128]
00000000: e291 f9bd 288e 8dbd ff22 16be 30ee 1d3e
00000010: 651b 1b3d 6127 bb3d d0ad cb3d a120 bbbd
00000020: de56 cd3d 6cd1 4dbe 034d 50be fc5c 14be
00000030: 74a4 213b 9909 103e 4c97 433e bf33 98bd
00000040: 4cdf 2bbe 9705 1cbe 7530 b0be 0060 513e
00000050: 8686 0cbe 2767 0cbd 3f1a 973d 087e 0abe
00000060: b687 01be d9ff b63d fc20 8dbd 1080 4cbe
00000070: f3ad 373d 1dd6 153d e177 b3bd 4287 0d3a
00000080: 9946 97be c7e2 253e b64c aa3b 881e f9bd
00000090: c5d1 363d bdfc 3abc 00dc 02bc d329 723e
000000a0: 8e98 efbd 96db 433e d822 04be ac30 213d
000000b0: 6b9f 383e 626e ab3d 3bd0 5f3c 2fca 073e
000000c0: d862 15bc 8fd4 85bc fe58 583d ef9d 87bc
000000d0: c927 a03e d998 233d b8bc 253c 25cf a83c
000000e0: 75a4 27bd 51d9 26bc ee85 7b3d 69ea 21be
000000f0: 1656 07be eb48 fe3d 8492 e63b b4a6 b5bc
00000100: 834f a93d 3c04 6e3e 32f0 48bd 23c0 0abe
00000110: 6db4 d1bc c345 093e cfdb 07bd 5d4f 323d
00000120: f6cd 55bd 2812 ce3b a140 683d 824e 123e
00000130: e1e5 a9bc 622b ccbd ed12 663b c511 823c
00000140: 12b1 9dbd a6c0 27bb 9887 a53c 2df8 4d3d
00000150: b590 ddbd f4a7 603d b76e 383d c12a bebc
00000160: 0d0d b83d c0ef 91bd 0f6d 8a3c 10de 423d
00000170: bc72 50be 1c56 a8bd 6f37 853d 0ac8 b1be
00000180: f93a dcbc 0e72 143e 5b1d 723d c733 bbbd
00000190: d5af 27be 7fba 31be a62f 32be 8402 d13b
000001a0: f0d8 dabc b91c dfbd 371b 05be 93b8 583c
000001b0: c34c b33d f7b9 833e 7c0d 77be f1dc 57be
000001c0: 8586 fdbd 6fd0 13be 46a8 1ebb 89e0 123d
000001d0: 6466 a7be 9c2f 013e cac5 f2bd ecc6 f5bd
000001e0: ea5e 02be e393 eabd 55dd 70bd deb7 5dbe
000001f0: 051a 3dbe 005a 5cbe f48b 6b3c f75c f7bd
00000200: 8383 1e3c 662d 69bd a763 4dbc 0127 8b3c
00000210: d5b9 62bd ba95 09be 9d12 9dbd 0532 1c3e
00000220: 40a8 0bbe a73d 9dbd d04b bfbd 1422 a4bd
00000230: 88eb 893b 3d55 f2bd ea7c 12be f705 513c
00000240: c3ba 333d 3aa1 233e 1abb 4a3d 4f04 09be
00000250: b156 34bd 9d62 e03d 7e46 3fbb a083 90bd
00000260: 717d 4cbd 8baa 5e3d b46a 04bb d069 20bd
00000270: 4409 0bbe b059 a93c dab2 14bb 5ede a93d
00000280: f4e8 5c3d 145a 46be af5e f1bd 8991 df3d
00000290: b256 e2be 255f d0bd 0dce b7bd fa98 bb3d
000002a0: 2e12 9f3c d2de 91bd 99fa 6f3d 7794 9e3d
000002b0: 7b8b cdbd 51a3 bdbd 62f1 56bd 0406 d9bd
000002c0: 4e17 193e 3ade 6abd 8651 963d b5a9 6bbc
000002d0: d395 4b3d 866a 5abd 9ca7 0abe 16b8 febd
000002e0: d868 9cbd 559a b83d 8bf3 32bd adaa 1f3b
000002f0: e72d d43c f342 c63d 1a44 2c3e 91b8 d0bc
00000300: 63da d83c 1d15 09be 744b 0abc 4c71 69bd
00000310: e121 9fbd 79f0 44be c014 1b3d c9ed 47be
00000320: 1525 7e3e d746 b6bd 5f07 b13d ea9c d0bc
00000330: eff9 babd c1ca d1bc 885c 0bbe 3ab2 ff3d
00000340: f235 0e3c d53f b8bd e807 47be 2753 bdbd
00000350: 120f 62be ea26 953c 8a97 563c 655b 88bd
00000360: b745 84be 91db 3c3d 3d59 c73c 7f21 0ebb
00000370: 0e8b dabe ff90 483d 633b 02be 01e3 b3bd
00000380: 7da9 10be cac8 f8bd c1f0 a2be 7d4d 2e3d
00000390: 6849 213e 2750 163d b0be 7ebd ecac 753c
000003a0: 100c 09bd f278 1a3e e07d e53d 035a efbc
000003b0: 1ddc 24be 167d 3a3d 1b27 c4bc 3e24 623d
000003c0: 5afd 0d3e 7de6 c9bd 5670 debd ff67 0fbe
000003d0: 230b b2bd 7229 e73d a3b0 cdbd 3f65 d13c
000003e0: af32 6bbe 3538 2d3d f6df 94be e3c6 5ebd
000003f0: 569c 18bd 68a4 3fbd 61fe 42be f1dc edbd
-0.12186028 -0.0691188 -0.14661787 0.15422893 0.037867922 0.0913837 0.099452615 -0.09137083
0.10026334 -0.2009942 -0.20341878 -0.14488596 0.0024664672 0.14066161 0.19100684 -0.07431745
-0.167844 -0.15236507 -0.3441197 0.20446777 -0.13723192 -0.03427806 0.07378053 -0.1352464
-0.12649426 0.08935518 -0.06891057 -0.19970727 0.044843625 0.036581147 -0.087630995 0.0005398878
-0.2954605 0.1619979 0.005197133 -0.121640265 0.044633646 -0.011412797 -0.007987022 0.23648767
-0.11699019 0.19126734 -0.12903917 0.039353058 0.18029563 0.08370663 0.013660486 0.1326072
-0.0091178045 -0.016336707 0.052819245 -0.0165548 0.31280354 0.03994069 0.010115795 0.020606587
-0.040928323 -0.010183648 0.061407022 -0.15812077 -0.13216433 0.12416252 0.007036509 -0.022174217
0.08267119 0.23243803 -0.049057193 -0.13549857 -0.025598729 0.13405518 -0.03316861 0.043532718
-0.052198373 0.0062887855 0.05670226 0.14287761 -0.020739498 -0.09969212 0.0035106495 0.015877614
-0.07699789 -0.0025597005 0.020206258 0.050285507 -0.10818616 0.054847673 0.04502746 -0.023213746
0.08986864 -0.07125807 0.016897706 0.047575057 -0.20356268 -0.08219549 0.06504714 -0.3472293
-0.02688359 0.14496633 0.059110027 -0.09140735 -0.16375668 -0.17356299 -0.17400989 0.0063784737
-0.026714772 -0.1089415 -0.12998663 0.0132276 0.087548755 0.25727817 -0.24126238 -0.21080376
-0.12379173 -0.1443498 -0.0024209186 0.035858665 -0.32695305 0.12615818 -0.118541315 -0.12000832
-0.1273152 -0.114539884 -0.05880483 -0.21652171 -0.18466957 -0.21518707 0.014376629 -0.120782785
0.0096749095 -0.05692806 -0.012535966 0.016986372 -0.055353004 -0.13436022 -0.07669566 0.15253456
-0.13638401 -0.07677775 -0.09340632 -0.080143124 0.0042089857 -0.11832664 -0.14305463 0.01275777
0.04387928 0.15979472 0.04949484 -0.1338055 -0.044027988 0.10956309 -0.0029186304 -0.070563555
-0.049924318 0.05436186 -0.0020205202 -0.03916341 -0.13577753 0.02067265 -0.0022689612 0.08294366
0.0539331 -0.193703 -0.117856376 0.109164305 -0.44206768 -0.101743974 -0.08974848 0.09160037
0.019417848 -0.07122578 0.058588598 0.07743161 -0.100363694 -0.09259666 -0.052476294 -0.105968505
0.14950296 -0.057340838 0.07339768 -0.014383723 0.04970343 -0.053324245 -0.135405 -0.12437455
-0.07637185 0.090138115 -0.043689292 0.0024363205 0.025900794 0.09680738 0.16822854 -0.025478633
0.026471322 -0.1338696 -0.008440841 -0.056992814 -0.07770134 -0.19232358 0.037861586 -0.19524302
0.24818833 -0.089002304 0.08643984 -0.025465447 -0.09129702 -0.025609376 -0.13609517 0.12485166
0.008679854 -0.0899655 -0.1943661 -0.09244376 -0.22076061 0.018207032 0.013097653 -0.06658057
-0.25834438 0.046107832 0.024334544 -0.0021687446 -0.42684215 0.048966404 -0.12717967 -0.08783532
-0.14127155 -0.121476725 -0.31824306 0.042554367 0.15750659 0.036697533 -0.062193573 0.014994841
-0.03345877 0.150852 0.112056494 -0.029217726 -0.16099592 0.045529447 -0.023944428 0.055210344
0.13866177 -0.09858415 -0.1086127 -0.14004515 -0.086935304 0.11287202 -0.100434564 0.025560973
-0.22968553 0.04228993 -0.2907712 -0.054388892 -0.03725847 -0.04678765 -0.1904235 -0.11614407

a2c_network.actor_mlp.4.bias f4 [64]
00000000: 3af0 f9bd ee9e fabc ca2c d8bd 2fa6 35bc
00000010: 0694 f5bd 92b7 c13c 90ba e8bd 6f0e 15be
00000020: 2e20 ebbd f0a9 4fbd 28dd 7dbe ef67 90bb
00000030: 88f4 12be cd2f 97bb 66de 31bd 7694 d1bd
00000040: 0d53 03be 1d80 c5bd 08b6 3f3d ac18 b8bd
00000050: c099 abbd a3a1 653d 9539 cfbc fb03 3abe
00000060: 2913 46bd 3632 25bd dfba ddbc 7eb3 80bd
00000070: 4e1b 4abd 7347 c4bd 22df 1cbe 2f4a c0bc
00000080: 2db2 acbd fe5c 543d d3ee c03d b0af 54bd
00000090: 5375 2fbe 3870 25be b3ff edbb 2238 03be
000000a0: a20a 4ebd 2fbe f7bc 8942 f4bd d946 a5be
000000b0: acac 67bd 9002 753b 7914 67bd 24b9 56be
000000c0: a8a3 0fbd c985 66bc 8617 5cbd 5f0b c5bd
000000d0: ea8b 15bd f6c4 83bc aa0f 57bd b24f d6bd
000000e0: 1ba9 cbbc d02a 46be 0655 8f3c b909 0abe
000000f0: 04a9 163c b88b 18bd e08b afbd e90a 7fbe
-0.12204023 -0.030593362 -0.10555418 -0.011086985 -0.11991124 0.023647103 -0.11363709 -0.14556287
-0.11480747 -0.050699174 -0.24791396 -0.004406921 -0.14351094 -0.0046138526 -0.043424986 -0.10233395
-0.1282465 -0.09643576 0.046804458 -0.08989081 -0.08378935 0.056062352 -0.025296012 -0.18165581
-0.048358116 -0.040331088 -0.027066646 -0.062842354 -0.049342446 -0.0958394 -0.15319493 -0.023472873
-0.08432422 0.051846497 0.09420552 -0.05192536 -0.171346 -0.1615609 -0.0072631477 -0.12814382
-0.05030311 -0.030242054 -0.11926753 -0.32280615 -0.056561157 0.003738556 -0.05641601 -0.20969063
-0.035068184 -0.014069983 -0.05373337 -0.096213095 -0.036510386 -0.01608513 -0.052505173 -0.104644194
-0.02486091 -0.19352269 0.017496597 -0.13480271 0.00919557 -0.03724262 -0.08571601 -0.24906506

a2c_network.value.weight f4 [1, 64]
00000000: 76d9 fc3d 9d23 123e 6420 0cbe cf09 5f3e
00000010: 572a 61bd 93ed d53d e6b8 013e 29fb 563c
00000020: 4cf2 833b 9e93 adbd 1a8a adbd e5e5 67be
00000030: 760b bcbd 8735 21be c86b 523d 60ae 353d
00000040: 4614 ba3e 6472 2ebe cd84 643e 7e8f 3fbe
00000050: 0990 58bd 0555 053e 3faf 373e 2661 423d
00000060: 3895 f23d 6afa a23d 910f 213e 8897 403d
00000070: 6424 99bb a0f3 e0bd 7c72 e73d e86a 193c
00000080: 07e2 0fbe fa09 1dbd fb72 b83d 39f6 83be
00000090: efe1 99bd c584 c6bd 9498 a8bd 3685 e33d
000000a0: b671 303d 544c e8bd dd63 bdbd b88f 0ebe
000000b0: e492 fc3d cada 1e3e d8b4 2bbe 08d5 32be
000000c0: 4ad9 143e 3393 2e3e cd43 f83d 03e7 58be
000000d0: 3d36 e03d 03f9 053e e09c ec3c 2240 67bc
000000e0: e7f4 0c3e c7f7 06be c92b 02be 8713 e33d
000000f0: 3cfd b63d b85e 993c 5207 1d3e cb18 27be
0.12346165 0.14271398 -0.13684231 0.21781085 -0.05497202 0.10445704 0.1266819 0.013121405
0.004026687 -0.08475421 -0.084736064 -0.22646292 -0.091818735 -0.15743075 0.05137232 0.04435575
0.36343592 -0.17035824 0.22316284 -0.18707082 -0.052871738 0.13020714 0.17937945 0.04745593
0.118448675 0.07957919 0.15728594 0.04701951 -0.0046735276 -0.10983968 0.11301133 0.009363867
-0.14051066 -0.038339593 0.09006306 -0.2577379 -0.075137965 -0.096932925 -0.08232227 0.11109392
0.043077193 -0.113426834 -0.09247563 -0.13922012 0.12332705 0.15513149 -0.16768205 -0.17464077
0.14536014 0.1704834 0.12122307 -0.21181874 0.10947845 0.13083272 0.028883398 -0.014114412
0.13765298 -0.13180457 -0.12712015 0.11087709 0.089350194 0.018721923 0.15334824 -0.16318052

a2c_network.mu.weight f4 [2, 64]
00000000: 1dcd 53bd 515b 5bbd 301d a7bc c0eb bd3c
00000010: 0168 2a3d 7c3f 15bc 2bf6 01bd a6aa f63d
00000020: d3ea 373d c7a4 e2bc 2648 8dbb b930 a5ba
00000030: 045e a13d d882 94bc faeb 013e db26 22bd
00000040: edc1 8c3d 2f90 1f3d 46ef ac3b e104 69bc
00000050: 878d 653d 74a3 1dbd 4ad5 8cbc a945 943d
00000060: 8c62 723c 31e5 973c a0c6 b4bc d425 513d
00000070: b117 673b ceaf a2bd 68e0 2a3d fbb4 b1bd
00000080: e59b 0ebe 5f70 c2bd 2e65 82bd 9faa d33d
00000090: 0bc0 913c 1c69 423d 13ed e23d 8403 25bd
000000a0: ab67 103d f4be 163d 19b1 b2bd 98e4 64bd
000000b0: 35e0 0d3c 5612 f5bc 7f48 fdbd edb9 063e
000000c0: 36a1 f93c f32a bd3c 4d7c 61bd 3642 df3c
000000d0: 34b8 99bb 0e23 873d b82a 34bd 73c7 393e
000000e0: fca3 d5bc 7da4 12bd 3b06 7fbd 40c6 873d
000000f0: 5bb6 3abd 6e08 b93d 9d37 11be c13b b1bc
00000100: 6bd1 9b3d 40f5 9c3d 53d6 2bbd 7e56 d03c
00000110: 6efb a2bc 6ebc 1b3b 883f 45bd 515e a8bd
00000120: a4f8 cc3d 71bd 9d3d f349 44bd dbaf cd3c
00000130: e5de dfbd f8e9 8ebd 0ca8 cc3d 4b08 d9bd
00000140: d990 b2bd 4107 2d3d 8b4d 1b3c 3ecb 913d
00000150: 38cc 3f3c 2a6c fb3c 9119 eb3c 4bb9 423c
00000160: cf46 03be 8ddd 6abd e233 8e3b 6e99 ebbd
00000170: 785e 9abd ea5e 3abd f5b0 0fbd 15a9 7fbc
00000180: 29be 0a3d 2f0c cf3c 6e9f 0b3d 70a6 abbb
00000190: 9497 9d3c b45b 0c3b f1d6 b0bd 7eb0 b53c
000001a0: cdfb 593d 6e7a c73b b758 853d d6c3 55bd
000001b0: 5c75 153c 6b1a 97bc 63ab 713d fe23 dc3d
000001c0: 7ba0 71ba 3b2b 4f3d 3f7e 6a3c 3e57 153e
000001d0: 9c62 153d fd4f 86bd 9c82 413d a811 bebd
000001e0: 3404 39bd d46b d63c e017 b8bc 591b abbd
000001f0: e50f 933d 371b a53c 70f5 843b 0202 8e3c
-0.051709283 -0.053553883 -0.02039966 0.023183703 0.041603092 -0.009109374 -0.031728905 0.12044267
0.04490168 -0.027666463 -0.0043115793 -0.0012603021 0.0787926 -0.018128797 0.12687674 -0.039587837
0.06872926 0.038955864 0.005277547 -0.014222355 0.056043174 -0.03848596 -0.017191548 0.07239849
0.014794003 0.018541904 -0.022067368 0.051061466 0.0035261924 -0.07943688 0.041717917 -0.086770974
-0.13926657 -0.09494089 -0.06366955 0.10335278 0.017791769 0.04746352 0.110803746 -0.040286556
0.035255115 0.0368032 -0.08725185 -0.055882066 0.008659412 -0.02991597 -0.12367343 0.13156863
0.03047238 0.023091769 -0.055050183 0.027253252 -0.004691148 0.06598483 -0.043986052 0.1814249
-0.02607917 -0.0358014 -0.0622618 0.0662961 -0.045584064 0.09034811 -0.14181371 -0.021634938
0.07608303 0.07663965 -0.041952442 0.025431868 -0.019895282 0.0023763436 -0.04815629 -0.082211144
0.10008362 0.07702149 -0.047922086 0.025108268 -0.10931186 -0.0697822 0.0999299 -0.10597285
-0.08719034 0.042243246 0.009478937 0.071188435 0.011706404 0.030691225 0.028698714 0.011884998
-0.1281998 -0.057340194 0.004339681 -0.11503874 -0.0753755 -0.045500673 -0.03508087 -0.015604277
0.033872757 0.025274364 0.03408759 -0.0052383468 0.019237317 0.0021416964 -0.08634747 0.022178885
0.05321865 0.006087593 0.06511062 -0.052188717 0.009122219 -0.018445214 0.059001338 0.107490525
-0.0009217334 0.050578337 0.014312326 0.14584062 0.036470994 -0.06558225 0.0472437 -0.092807114
-0.045170024 0.026174463 -0.022472322 -0.083548255 0.07180766 0.020154579 0.0040575787 0.017334942

a2c_network.mu.bias f4 [2]
00000000: 1669 0ebe 6ef3 0b3d
-0.13907275 0.0341677

exp_avg f4 [2]
00000000: e8bd 223b c2d5 9b3a
0.0024832431 0.0011889266

exp_avg_sq f4 [2]
00000000: 103b d037 0425 bf37
2.4823035e-05 2.2786211e-05

exp_avg f4 [256, 24]
00000000: 46c9 8339 ea6e c938 0236 1c39 04db acb8
00000010: ad17 3ab7 60da 2439 ed44 d938 7407 7538
00000020: 463a 9438 8dbc dd37 bab7 cfb9 d8cc b837
00000030: f7f5 8b38 cc2f 1bba 692c 053a 5910 e0b5
00000040: b495 c2b8 5c53 6538 f1a7 c339 2bfb 42b9
00000050: ed25 0e3a 7da3 6bb9 2463 dbb5 fd8d 7936
00000060: b17a 06b8 972d a638 d2db 9cb9 95ee 3cb9
00000070: 96fa 5ab9 3883 51b8 514b 38b9 0cdd bc37
00000080: b4b4 0d39 0641 253a 2767 e6b9 238c 70b8
00000090: 5cab e938 05d8 cbb9 2758 3439 3efb c0b3
000000a0: 75c8 2fb8 b318 5eb8 385c 5b38 fbd4 27b9
000000b0: c00d eb38 f398 99b8 07f8 b0b6 157f f3b6
000000c0: d3e3 1fba e8d6 99b9 ce91 8fb9 87b8 9739
000000d0: b698 adb9 7d78 f3b9 76ae 78b9 353e f2b9
000000e0: f8d6 2bb9 bfab 93b9 215f 0fb8 7420 9138
000000f0: 4e1d 0339 8e68 063a b84d 57ba c0ee 0f35
00000100: 0022 d1b8 aa40 b938 8c2c 2aba dd8d d738
00000110: c5cd 21ba 0ae8 97b7 2548 9437 1895 a837
00000120: fe36 5c37 2bd7 89b8 da49 2338 71a8 beb7
00000130: d4d3 21b7 ece4 0239 8f9f 1bb9 c9c7 ef38
00000140: 9c5d 52b8 d7b1 50b9 c83c 8cb9 334a 3b39
00000150: 3299 2a38 ffe0 7938 38d6 a639 b2e2 d434
00000160: 71d9 e738 6555 7eb7 46b1 48b8 3840 c0b8
00000170: e20f 4ab9 2f10 7cb8 8ee9 6db7 3de6 0fb7
00000180: 6e39 64b9 4d54 3438 b863 7d39 0710 0739
00000190: d983 cb39 5fe9 8439 647b b139 7568 2139
000001a0: efea 8636 a3cf 72b9 ffed fa38 12cd 0cb8
000001b0: 5a73 3ab9 a9e2 063a 62aa b139 ee57 18b5
000001c0: ad78 8f38 bb1a 1a38 e63d 1e38 6b00 8537
000001d0: 176d 31b8 3967 00b8 94d5 7737 e4b1 6537
000001e0: e576 0339 28fe 8c36 7c9b a3b8 2976 9d39
000001f0: 2133 6839 aede 68b8 990e 1db8 0973 d537
00000200: 5b76 95b8 a9a2 b038 fd29 2039 6062 0eb7
00000210: 2245 a437 aed5 013a 7a81 96b8 f487 ec35
00000220: 7ac6 6a39 e290 77b8 7120 e5b8 4a69 aab6
00000230: 8a03 d4b9 8fe7 8b38 8aa0 acb5 e93a 4fb7
00000240: c191 3539 7112 aa38 c452 99b9 a62d d2b8
00000250: d1d7 21ba 2cce 83b8 3356 3dba 0c6d 94b8
00000260: 4025 fa37 3595 cd39 f59b 42b9 aea5 4bb9
00000270: 3a76 c839 8b8f 96b9 a73a 74b9 3d69 a735
00000280: a0ec 2138 8f19 a137 fc05 d4b9 8f02 c538
00000290: 19c4 05ba 9db0 7038 ade2 75b7 69da bfb7
000002a0: 440d 063a 7722 84b8 d387 0ab9 9c11 35b9
000002b0: 4973 a2b9 fb8c b9b9 dbaf 6cb9 d67b adb9
000002c0: f9a9 0bb9 0bee 3ab9 be0d bdb9 2ab2 6439
000002d0: 6505 a639 c3a0 2cba 9990 acb9 2f03 40b5
000002e0: 5258 bdb8 47e0 4c38 8cdf 0839 74d4 f4b8
000002f0: 0c4c 8939 1a2b 26b9 bf39 12b7 85ac d835
00000300: 5ea4 5e3a d689 39b9 1199 df39 1b32 57b8
00000310: eaf6 8a39 b3a0 0439 b531 8339 a5b9 0d39
00000320: 7dbd f7b8 a778 d3b8 104e a5b9 b67f 6d39
00000330: 7cbe d738 6b8d 1dba 37c8 7239 a332 a2b5
00000340: adbc 0338 0e28 07b8 d79c 283a 6a06 0bb8
00000350: 0261 363a b711 2b37 7fe4 2937 a98c 9937
00000360: 0d7b 6eb9 a549 11b7 11db b3b9 db99 8f38
00000370: 5250 bdb8 4dbf 4cb9 d31e 8ab9 188c b3b8
00000380: 4fb7 ceb7 28b9 7f38 4fb5 edb6 d41f 1db9
00000390: 0975 c238 7ef1 2f39 e65a 64b9 e51a 8f35
000003a0: 669f 0a39 e6e8 6db8 719c 4cb9 f867 2ab8
000003b0: bb6e cbb9 3a71 0c38 6c49 c0b4 cf3f a8b6
000003c0: f6e0 f9b9 c11f 3138 2a5d 9a38 2dee a338
000003d0: 079a ae39 a31e 6139 9f24 cd39 7f82 6b39
000003e0: 8403 d638 3672 8139 7efd 9539 7143 c1b8
000003f0: 45ce 62b9 5920 ef39 f778 cfb8 f529 ce34
0.00025136227 9.605086e-05 0.00014897439 -8.242394e-05 -1.1091976e-05 0.0001572161 0.00010360205 5.8419493e-05
7.068044e-05 2.6433054e-05 -0.00039619004 2.2029897e-05 6.673851e-05 -0.0005919903 0.0005080165 -1.6694058e-06
-9.278525e-05 5.467549e-05 0.00037318424 -0.00018594849 0.00054225215 -0.0002247225 -1.6345625e-06 3.718654e-06
-3.2062355e-05 7.9239886e-05 -0.00029918418 -0.00018017956 -0.0002088345 -4.995169e-05 -0.00017575665 2.251428e-05
0.00013514125 0.000630394 -0.00043945873 -5.735097e-05 0.00011142224 -0.00038880124 0.00017198977 -8.9863974e-08
-4.190994e-05 -5.2951928e-05 5.2299554e-05 -0.00016005702 0.00011208234 -7.3240975e-05 -5.274083e-06 -7.2567586e-06
-0.0006099317 -0.00029342552 -0.00027383718 0.00028938448 -0.0003311091 -0.00046438343 -0.00023716115 -0.00046204185
-0.00016387913 -0.00028165986 -3.4182453e-05 6.920184e-05 0.0001250405 0.0005127274 -0.000821318 5.361908e-07
-9.9722296e-05 8.833532e-05 -0.00064916234 0.00010278423 -0.00061723246 -1.8108654e-05 1.767657e-05 2.0096588e-05
1.3125826e-05 -6.572747e-05 3.8931008e-05 -2.2728202e-05 -9.645668e-06 0.00012483046 -0.00014841392 0.00011433621
-5.0155082e-05 -0.00019902676 -0.00026748166 0.00017861351 4.0673833e-05 5.957577e-05 0.00031821593 3.965302e-07
0.0001105544 -1.5159462e-05 -4.7848815e-05 -9.167235e-05 -0.00019270138 -6.0096554e-05 -1.41806795e-05 -8.577071e-06
-0.00021765169 4.2993855e-05 0.00024165108 0.00012880574 0.0003881741 0.00025350877 0.00033852004 0.0001539307
4.020861e-06 -0.00023156269 0.00011965259 -3.3569588e-05 -0.00017781314 0.00051454693 0.00033887016 -5.6752367e-07
6.841249e-05 3.6741356e-05 3.7727783e-05 1.585503e-05 -4.2301686e-05 -3.061371e-05 1.4772075e-05 1.3690882e-05
0.00012537425 4.201913e-06 -7.801407e-05 0.0003003341 0.00022144291 -5.5520497e-05 -3.7445312e-05 2.5445146e-05
-7.126919e-05 8.422632e-05 0.00015274431 -8.486764e-06 1.9582516e-05 0.00049528 -7.176674e-05 1.7622938e-06
0.00022389917 -5.902432e-05 -0.000109256136 -5.078652e-06 -0.00040438428 6.671168e-05 -1.2861722e-06 -1.2351878e-05
0.00017315803 8.109667e-05 -0.000292441 -0.00010022083 -0.0006173822 -6.284969e-05 -0.00072226225 -7.0775015e-05
2.9819668e-05 0.00039211815 -0.0001855938 -0.00019421309 0.00038235058 -0.00028717177 -0.00023291503 1.2473098e-06
3.8605765e-05 1.9204597e-05 -0.0004044025 9.3941686e-05 -0.0005102768 5.7384943e-05 -1.4655915e-05 -2.287068e-05
0.0005113671 -6.30067e-05 -0.00013211304 -0.00017268065 -0.00030984942 -0.00035390988 -0.00022572225 -0.00033089396
-0.00013319393 -0.0001782702 -0.00036059128 0.00021810146 0.00031666007 -0.00065852347 -0.0003291413 -7.1530206e-07
-9.028673e-05 4.8846265e-05 0.00013053248 -0.00011674399 0.00026187336 -0.0001584705 -8.715723e-06 1.6143464e-06
0.00084931205 -0.00017694323 0.00042647918 -5.130666e-05 0.00026505376 0.00012648366 0.00025023302 0.00013515966
-0.00011813173 -0.00010083737 -0.00031529414 0.00022649657 0.000102874794 -0.00060101476 0.00023153504 -1.2084678e-06
3.1408552e-05 -3.2223812e-05 0.00064320624 -3.3146156e-05 0.00069572043 1.0196519e-05 1.0126386e-05 1.8304521e-05
-0.00022743289 -8.65982e-06 -0.00034304758 6.847429e-05 -9.027183e-05 -0.00019526221 -0.00026344377 -8.5614796e-05
-2.4642473e-05 6.0969178e-05 -7.0842575e-06 -0.00014984544 9.2724404e-05 0.00016779263 -0.00021777637 1.0662158e-06
0.00013220086 -5.6722107e-05 -0.00019513235 -4.0627987e-05 -0.00038801678 3.348405e-05 -3.5816208e-07 -5.0142185e-06
-0.0004766059 4.222966e-05 7.3606454e-05 7.8168094e-05 0.00033302626 0.00021469085 0.00039127932 0.0002245996
0.0001020497 0.0002468989 0.0002860836 -9.215519e-05 -0.00021629881 0.00045609733 -9.8930606e-05 3.8401018e-07
